vsn_nw/assets/sequential.onnx (onnx, 471347 bytes, 8 tensors)

sequential/embedding/embedding_lookup/21659:0 f4 [946, 32]
000000 e5 98 0e 3d 7f bd 34 be 46 1e b6 3a d0 23 49 bd
       0.03481378 -0.17650412 0.001389452 -0.04910642
000010 38 ae 13 3d 19 ae 72 3d 48 de 80 bd 61 8e 02 3e
       0.03605482 0.059248064 -0.06292397 0.12749626
000020 a2 d0 71 3d 00 b8 a1 3d 2b 24 24 3d 37 a6 c6 bd
       0.05903686 0.07896423 0.040073555 -0.09699672
000030 1f 95 bd bd e1 99 77 3d 30 4a b8 bd c3 41 b2 3d
       -0.09256958 0.060449485 -0.08998525 0.08703949
000040 bc d6 1c be 17 07 dc 3d 4f c4 7f 3d 6a aa 98 be
       -0.1531629 0.1074354 0.062443074 -0.29817516
000050 75 5c f2 bc 30 ae e0 3c 6a 3e fd 3d 48 c3 1f 3e
       -0.029585103 0.02742681 0.1236542 0.15601838
000060 6e 9d 0a bd f9 b0 81 be d7 96 90 bc 1c e2 5e 3d
       -0.033841543 -0.25330332 -0.017650051 0.054414853
000070 4e cb 83 3d 7c ac 1a 3d a1 0b f5 bc d6 bc 9d 3d
       0.06435262 0.03776215 -0.029912772 0.07702033
000080 c8 a8 52 3b 4b f6 b3 3d b9 ad 68 bd 6b 88 97 bc
       0.0032144058 0.08787211 -0.0568063 -0.018497666
000090 72 17 83 3c 3e 60 71 bd e6 ec a0 bd 83 a2 73 ba
       0.01600239 -0.058929674 -0.07857685 -0.00092939305
0000a0 ae f2 67 3d d6 3a 1e 3c fa 56 d3 3c b1 e9 92 bc
       0.05662792 0.009657582 0.02579831 -0.017933698
0000b0 30 37 dc 3d 44 74 b9 bd 5a 39 2b bd a7 d9 9b 3c
       0.10752714 -0.09055379 -0.04180274 0.019024683
0000c0 c1 ee 9c bd 16 81 32 bd 7a 24 29 3d 61 63 14 3d
       -0.07662726 -0.043580137 0.041294552 0.036227588
0000d0 bf 0a 01 bc a8 b2 0d 3b 92 d4 ac 3d b0 11 51 3d
       -0.007876097 0.002162138 0.08438982 0.05104226
0000e0 b1 63 11 b9 21 18 e8 bc ab 95 8a bd d0 95 a3 bc
       -0.00013865416 -0.028331818 -0.06766828 -0.019968897
0000f0 1b 5c 9d 3c d1 40 fa bb c9 34 98 3d 9c 4f e9 bc
       0.019208958 -0.0076371212 0.07431943 -0.028480344
000100 9c e9 11 bd 57 6c fb bb a7 b7 1f 3c 78 4b 48 3d
       -0.035623178 -0.007672827 0.009748376 0.048900098
000110 a1 54 09 bc 84 d2 8c bd 63 a2 18 bd db 6b 05 3d
       -0.0083819935 -0.0687609 -0.03726424 0.032573562
000120 54 10 1f 3e 54 a4 24 bd fd 01 41 3c 5e 1d 57 3d
       0.15533572 -0.040195778 0.011780259 0.05251824
000130 55 db cf 3b c0 a2 cc b9 56 a2 99 3d e3 c3 bf bc
       0.006343285 -0.0003903117 0.07501666 -0.023408836
000140 2f e2 94 bd 5b f9 14 be 45 d4 1b 3e 1f 43 1c 3d
       -0.072697036 -0.14548247 0.15217693 0.03814995
000150 da 71 12 bd 22 08 e0 3c 3b 51 87 3d 24 ac 0b 3e
       -0.03575311 0.027347628 0.0660729 0.13639885
000160 4e cc b2 3c fe 10 7c bc 31 84 3f be e1 3a 63 3c
       0.021825936 -0.015384911 -0.18702771 0.013869018
000170 44 b7 06 3e 32 0b ba bd 09 8b 14 3e 11 48 90 3c
       0.13155848 -0.090841666 0.14506163 0.017612489
000180 ee 00 f0 bd 81 20 ba bd d4 e5 6d bd d4 75 03 3d
       -0.11718927 -0.09088231 -0.05808051 0.03209479
000190 b2 c0 1e bd a2 99 bf 3c f9 ce 88 bd 92 9f f5 bb
       -0.038757987 0.023388688 -0.06680102 -0.007495829
0001a0 29 fc 9d 3d cb 66 7a bd 6d e9 59 3d a5 d5 35 3d
       0.07714111 -0.061133187 0.053201128 0.0443932
0001b0 da 31 ce 3c ce 26 f0 bd b5 e3 55 3d 57 be a7 bb
       0.025170255 -0.117261514 0.05221911 -0.005119126
0001c0 d0 03 02 bc a9 db 17 bd 5c 1f 4e 3d cd b4 0e 3d
       -0.007935479 -0.03707472 0.050322875 0.034840394
0001d0 7d 83 81 3b f8 51 81 bd 7a 24 39 3c 5a d1 03 3e
       0.003952442 -0.063144624 0.011300201 0.1287283
0001e0 ea 39 2f 3c 35 1d 1b 3d 3f 7d f5 bd 50 5e 63 3c
       0.01069496 0.03786965 -0.119867794 0.013877466
0001f0 67 44 11 3d 07 a2 1c bc 98 12 84 3d 3a 4d e9 bd
       0.035465624 -0.009560115 0.06448859 -0.11391683
000200 29 50 57 bc d5 27 54 bd 3a 05 c2 bd 63 9d 02 bd
       -0.01314167 -0.0517958 -0.09473653 -0.031888377
000210 a9 f0 10 bd e4 7a ab bd a9 3a b3 bd a8 72 d8 bd
       -0.03538576 -0.08373049 -0.08751423 -0.10568744
000220 72 05 2f bd 6b 4d 9e 3d 0c 1d 33 3d 30 7c 99 3c
       -0.042729802 0.0772961 0.043728873 0.018735975
000230 51 0c fc bb ed 6e ce bc dd d8 e8 bc 13 11 0c bd
       -0.007691898 -0.025199378 -0.028423721 -0.03419597
000240 79 ef 1e 3c 20 cd d5 3c 85 ca 40 3c 6e 91 e3 bb
       0.009700649 0.026098788 0.011767034 -0.006944827
000250 61 37 b9 3d a4 a8 22 bb 44 db 0b bc da 1b 7d bd
       0.09043766 -0.0024819756 -0.008536164 -0.06179414
000260 d0 65 ba 3b 2c 3f 18 3c 22 14 c6 bc 05 c2 20 bd
       0.0056884065 0.009292405 -0.024179522 -0.03924753
000270 62 17 95 bc c5 c2 30 3c 86 d1 63 bb 60 2d fd bd
       -0.018199626 0.010788624 -0.0034762337 -0.1236217
000280 7d 64 03 3d 90 62 e1 3d 26 ec ae 3b f3 95 d0 3b
       0.032078255 0.110051274 0.0053382097 0.0063655316
000290 c3 31 13 3c 5f 32 1a 3e 04 20 10 3d f3 25 36 3e
       0.008984032 0.15058278 0.035186782 0.17787914
0002a0 e8 44 c5 bd c3 68 01 3e 4c 46 b5 3d bc a4 d1 3d
       -0.096322834 0.1263762 0.08851299 0.10236499
0002b0 75 29 df bd b7 ad 55 3d 7e df 44 bd d3 e5 87 bd
       -0.10896579 0.05216762 -0.0480647 -0.06635632
0002c0 52 e1 08 3c 94 a7 16 3e 65 40 6e be 63 7a c2 bb
       0.008354502 0.14712363 -0.23266752 -0.005935
0002d0 02 e6 99 bc 93 ca 65 3d ab d3 fb 3d 05 fd 07 3d
       -0.018786434 0.056101393 0.12296232 0.033200283
0002e0 e1 7f 77 3d 57 4b 0a bc 6e d3 87 3e 0b de 25 be
       0.06042469 -0.008440814 0.26528496 -0.16197984
0002f0 cb bf d6 3d c0 f1 b5 3a 9b d2 92 bd 38 ef 19 3e
       0.104858 0.0013881251 -0.07169076 0.15032661
000300 0e f0 ea 3c d9 c5 1d 3d 30 73 2c bd bd 29 23 3d
       0.02867892 0.03851876 -0.04210204 0.039834727
000310 aa d7 1f bd 27 63 02 3d 50 98 88 3b 17 d3 30 bd
       -0.039024033 0.03183284 0.0041685477 -0.04317006
000320 fd 76 08 bd 00 2a 20 bb e7 b3 16 3d f3 da e2 bc
       -0.0333166 -0.0024439096 0.036792662 -0.027692294
000330 59 dc 39 3d a9 4b 08 3d 41 4d 05 3d 30 f6 d4 bb
       0.045376156 0.03327528 0.03254438 -0.0064990744
000340 b9 58 42 3d a0 af db bc 74 e8 31 bc 00 7a 3a 3c
       0.047447894 -0.026817143 -0.010858644 0.011381626
000350 60 46 0d bb 47 e4 12 3d 63 69 4b bd 98 80 d6 bb
       -0.002155684 0.035862233 -0.04966105 -0.0065460913
000360 e4 3d 55 3c a3 93 49 bd d0 91 93 3b 80 43 ff bb
       0.013015244 -0.049213063 0.004503466 -0.007790029
000370 80 e0 1d 3c 23 f0 16 3d ae 26 9b 3c f7 42 3f bd
       0.0096360445 0.036850106 0.018939342 -0.046694722
000380 31 68 e9 3d 27 b5 8e 3d 2c a5 13 be 8a 6b b3 bd
       0.11396826 0.06968146 -0.14418477 -0.08760746
000390 45 4c eb bd 30 dd 57 bd c0 82 ea bc b2 7a c8 3d
       -0.11489157 -0.052701175 -0.0286268 0.09789027
0003a0 46 20 85 3d 75 ab 7a 3b 46 5b 95 bc 59 35 5b bc
       0.06500296 0.003824917 -0.018232 -0.013379418
0003b0 20 1a 56 3d 8a 2c c4 bb 81 10 10 3d 8f d7 80 3c
       0.05227101 -0.005986755 0.03517199 0.015727786
0003c0 43 3a b3 bd 1f 9e 2c bd 2a 0f c4 3d ba 26 38 be
       -0.08751347 -0.042142984 0.09573205 -0.17983523
0003d0 43 4b c5 bd 3a 71 a3 3d 85 41 4b bd 6c 21 92 bd
       -0.09633496 0.07980581 -0.04962303 -0.07135281
0003e0 04 4f 21 bd 86 19 cc bd e1 c0 c2 bd c5 10 15 3e
       -0.039381996 -0.09965806 -0.09509445 0.14557178
0003f0 7a 93 82 bd 8e 55 4d 3d 71 0e 42 bc 53 a9 df bd
       -0.06375785 0.05013042 -0.011844263 -0.10920968

sequential/dense/MatMul/ReadVariableOp:0 f4 [64, 946]
000000 e8 8e 67 be ca e7 b3 be 4d 08 33 be ae 0b ad be
       -0.22613108 -0.3513778 -0.17483635 -0.33797973
000010 7e cb ba be a2 67 2a 3e dd 1f c3 be b7 96 f4 bd
       -0.36483377 0.16641095 -0.38110247 -0.11942809
000020 74 4a 75 bc 88 58 3f be 00 20 14 3d a8 12 da be
       -0.014971364 -0.18686116 0.03616333 -0.4259236
000030 2e f5 b1 be 73 ac 17 3e 23 2f c6 be 04 40 cf be
       -0.3475737 0.14811878 -0.38707837 -0.40478528
000040 32 ee 52 3d 81 5c 59 be e4 a6 c8 be 32 e5 bf bc
       0.051496692 -0.21226694 -0.39189827 -0.023424719
000050 2b 5e 29 3e 88 ef ba be 33 9d 71 be 74 22 d7 bd
       0.16539828 -0.36510873 -0.23595123 -0.10504618
000060 55 81 26 3e af a8 07 3e 8f ec c2 be ec fa c7 be
       0.16260274 0.13247941 -0.38071105 -0.39058626
000070 4b 0f c9 be 53 a8 c7 be 45 6b b4 be af bd a8 be
       -0.3926948 -0.3899561 -0.3523809 -0.32957217
000080 e4 31 b9 be ba fb 5b be 89 77 bf be f4 81 aa be
       -0.36170876 -0.21482745 -0.37395886 -0.3330227
000090 37 15 d6 be a4 39 14 3e e2 c8 c0 be 4e c9 34 be
       -0.4181306 0.14475113 -0.3765326 -0.17654917
0000a0 ab 9f 1f 3d 38 63 57 3e ae a5 f4 3c c0 70 f3 3d
       0.03897063 0.21033943 0.029864158 0.1188674
0000b0 0d ed 6e bd 06 fe c0 be f2 d4 39 bd 39 1d d3 be
       -0.058331538 -0.37693805 -0.045369096 -0.41233233
0000c0 52 1f b9 be d9 49 68 3d 73 81 b6 be 14 11 c8 3d
       -0.36156708 0.05671105 -0.35645637 0.097688824
0000d0 a4 9e c5 be 48 90 0b 3e 6a d0 bc be 7b 32 89 be
       -0.38597596 0.13629258 -0.36877757 -0.26796326
0000e0 8e c2 25 3e 5b 90 b1 be ba 64 06 3e f5 dc d3 be
       0.16187498 -0.34680447 0.13124362 -0.41379514
0000f0 d2 95 83 3d b6 6f 09 bd 88 d6 c7 be 69 42 cd be
       0.0642506 -0.0335538 -0.39030862 -0.4008973
000100 2c 43 b9 be 33 81 24 3e d6 17 ac be f8 cd ff bd
       -0.3618406 0.1606491 -0.33611935 -0.12490457
000110 00 62 4d be ae d4 14 be 69 e0 8d be c0 da de bd
       -0.20056915 -0.14534256 -0.27710274 -0.10881567
000120 86 0e b8 be 01 5e c6 be dd e5 b8 be 18 e2 b5 be
       -0.3594858 -0.38743594 -0.36112872 -0.35524058
000130 da c4 e8 bc 53 80 cd be c8 20 07 3e cf aa 2e 3e
       -0.028414179 -0.40136966 0.13196099 0.17057346
000140 c5 5a 01 3e 0b 10 c9 3d 2c 9c ce be 5f 4b d6 bd
       0.12632282 0.09817513 -0.40353525 -0.10463595
000150 4b be b4 be 05 11 ca be 0e 7d 40 be 12 50 bf bd
       -0.35301432 -0.3946611 -0.18797705 -0.09341444
000160 ba 65 61 bd 04 e2 02 3c 49 08 89 bb 1f 51 c4 be
       -0.055028655 0.007988457 -0.004181896 -0.3834314
000170 a4 24 c9 be ad 96 7f be cc 3d aa 3c fc 57 cc be
       -0.39285767 -0.24959822 0.02078142 -0.39910877
000180 2a 80 03 3e c6 0b 81 be 77 da af be 75 43 f4 3d
       0.1284186 -0.25204295 -0.34346363 0.11926929
000190 89 fe aa be d1 fb cf be df f3 b7 be 7d 52 dc 3d
       -0.3339732 -0.40621808 -0.35928246 0.10757921
0001a0 58 8e e6 3d 24 ab 34 3e 0d 91 14 3c 64 74 76 3d
       0.11257619 0.1764341 0.009067786 0.060169592
0001b0 50 7d 52 be 97 ee ce be 00 0d ee bd 3a 47 f2 3d
       -0.20555615 -0.40416405 -0.11623573 0.11829992
0001c0 76 45 2b be 25 a0 ba be 84 9e d4 bc d5 d4 b2 be
       -0.16725716 -0.36450306 -0.025954492 -0.34928003
0001d0 62 11 35 3d 86 3b d3 bd 82 34 be be 86 d0 3a 3e
       0.04420603 -0.103140876 -0.37149435 0.18243608
0001e0 ee f4 52 be 0f 1b 20 be 55 7d 0f bd b3 61 bc be
       -0.20601246 -0.15635322 -0.035031635 -0.3679329
0001f0 64 dd 98 3d 93 2d d4 be 27 8c 22 be 6f 61 df 3d
       0.07464102 -0.4144102 -0.15873776 0.10907256
000200 8b 86 13 3e b3 03 c8 be a3 d4 d8 bd af fa c4 be
       0.14406793 -0.39065322 -0.10587432 -0.38472506
000210 a3 47 76 be da ec c5 be 6b cd 22 3e 12 b8 11 3e
       -0.24050765 -0.38657266 0.15898673 0.14230374
000220 78 00 84 bd d6 77 74 be 91 6a a2 3d 3b 66 d3 be
       -0.06445402 -0.23873839 0.07930482 -0.41288933
000230 3f e8 1d be 2b 15 b3 be 07 6f bf 3d 53 c8 0e be
       -0.15420626 -0.34977087 0.09347349 -0.13943605
000240 14 b1 c5 be b0 e6 d5 bd 45 da 8c 3e 56 5e fa bd
       -0.38611662 -0.10444391 0.27510276 -0.122250244
000250 95 a2 b4 be fc 3d ce be c3 0c c0 be 4b 57 ba be
       -0.3528029 -0.40281665 -0.37509736 -0.36394724
000260 01 ac 9f 3d 9b 51 35 be e9 91 ad be 6e b0 d1 be
       0.07796479 -0.17706911 -0.33900383 -0.40954918
000270 0f de fe 3d 7c ec 4f 3e c2 e8 d4 be 7e 47 d4 be
       0.12444698 0.20305055 -0.4158383 -0.41460794
000280 e8 80 26 3e c0 ef 28 be e4 8d d2 3c a5 65 25 3e
       0.16260111 -0.16497707 0.025702424 0.16152056
000290 26 fd 1c be b4 0a c7 be d7 52 10 be 78 8e c2 be
       -0.15330943 -0.38875353 -0.14094101 -0.3799932
0002a0 6e b3 2f 3e 3c cc ab 3b dd 0c dd bd be d5 bb be
       0.1715829 0.0052428525 -0.10793469 -0.3668651
0002b0 ac 47 5e be 49 3a 1e be ca 22 d4 be d7 e8 60 be
       -0.21707028 -0.15451922 -0.41432792 -0.21963821
0002c0 6b ce d3 be 61 f4 3c be 15 78 38 bc 51 8a 1d be
       -0.41368422 -0.18452598 -0.011259099 -0.15384795
0002d0 7a 8d 5f 3d 86 95 b3 be 6b 30 21 be 52 30 3c be
       0.054578282 -0.35075015 -0.15741126 -0.18377808
0002e0 63 db de 3d f5 44 df 3c 21 58 59 bd a6 58 c6 bd
       0.108816884 0.027254561 -0.053062562 -0.09684877
0002f0 11 70 19 3e ad 61 2b be c9 25 c4 be 7d 73 ca be
       0.14984156 -0.16736479 -0.38310078 -0.39541236
000300 07 26 2b be 19 66 cb bd d7 e4 39 be 6e 4b b6 bd
       -0.16713725 -0.09931583 -0.18153702 -0.08901106
000310 51 14 48 3e 94 20 d2 be d6 66 07 3e b9 bc 69 be
       0.19539 -0.4104048 0.13222823 -0.22825898
000320 0a d1 e8 3d 6d a4 50 3e 7a 22 bb 3d ab 6f d1 be
       0.11367996 0.20375223 0.09137435 -0.40905508
000330 0c 3e 40 be 25 2b e7 3d fd cb a6 be 6a 58 4a bd
       -0.18773669 0.11287526 -0.32577506 -0.049400724
000340 ed fa b9 3d 79 6d 3a 3e fe 93 93 3d a3 95 b7 be
       0.090810634 0.18205823 0.07205962 -0.3585635
000350 9a f9 37 3e d3 fa b9 be e3 7a c8 be 87 41 23 3e
       0.17966309 -0.36324176 -0.39156255 0.15942965
000360 89 b7 f7 bb 06 a2 cd be f7 cd ac 3d 6a d4 5c bd
       -0.007559721 -0.40162677 0.08437722 -0.05391351
000370 94 18 c1 be 33 ad 06 3e 3f f8 fb 3d 49 94 71 be
       -0.37714064 0.13152008 0.123032086 -0.23591723
000380 df ac 1c be f9 31 3d 3e 24 25 c6 bd 8d 8e d7 be
       -0.1530032 0.18476094 -0.09675053 -0.42100945
000390 b9 b9 b9 be 01 98 8b 3d b2 94 19 be 1b 08 eb bd
       -0.36274508 0.06816102 -0.14998129 -0.11476155
0003a0 67 f7 bd be 4c 88 5e bd 23 33 d1 be 83 b8 bd be
       -0.37102816 -0.0543292 -0.40859327 -0.37054834
0003b0 80 5e ca be f0 88 0b 3e 10 67 2a be 39 5a 79 be
       -0.39525223 0.13626456 -0.16640878 -0.24350823
0003c0 b5 c5 30 3d 34 59 c2 be 70 cd b6 be 6a 74 5e be
       0.043157298 -0.37958682 -0.3570361 -0.21724096
0003d0 e6 55 af be f1 16 f7 bd 03 c4 b0 be 5b d0 30 3d
       -0.34245223 -0.120649226 -0.34524545 0.043167453
0003e0 bf 01 7b be b8 d6 0c 3e 3e 39 c8 be 14 b9 ae be
       -0.24512385 0.13753784 -0.39106172 -0.34125578
0003f0 92 48 53 3d 8c 5f 11 3d b9 11 da 3d 0f 9b ac be
       0.05158288 0.03549151 0.106479116 -0.3371205

sequential/dense/BiasAdd/ReadVariableOp:0 f4 [946]
000000 04 3b 8b bd 83 89 8f be ee 8b 8f 3c 34 88 8f be
       -0.06798366 -0.280346 0.017522778 -0.28033602
000010 33 1d 8f be ab 7c 67 3c 39 ef 8e be c3 2c 29 bd
       -0.27951965 0.014128844 -0.27916887 -0.041302454
000020 0b 43 0c bd c1 cd b9 bd de fe d5 3b be 91 8f be
       -0.034243625 -0.090724476 0.0065306267 -0.2804088
000030 d4 ab 8e be e0 19 a1 bd 72 bd 8f be 28 cd 8e be
       -0.2786547 -0.078662634 -0.28074223 -0.27890897
000040 59 22 df bc cd 39 a2 3a b0 8a 8c be bb e5 ab bd
       -0.027238058 0.0012376845 -0.2744956 -0.08393427
000050 75 72 0d 3c d6 13 8e be 85 da c0 bd 78 11 d5 bb
       0.008633246 -0.2774951 -0.09416679 -0.0065023266
000060 41 a1 e7 bc 50 30 be bc ba 45 8d be 00 c6 8c be
       -0.028275134 -0.023216397 -0.2759226 -0.27494812
000070 76 8e 8e be d2 5b 90 be fe 0a 8f be c2 a4 8d be
       -0.27843064 -0.28195053 -0.27938074 -0.27664763
000080 61 23 90 be 74 07 79 3c 02 fb 8d be ae 48 8e be
       -0.28151992 0.015199531 -0.27730566 -0.27789825
000090 2c a5 8e be 9c c6 85 bc 79 22 8e be 57 39 89 3b
       -0.2786039 -0.016330056 -0.27760676 0.0041877436
0000a0 02 5c 2b bd 65 fd 07 bd 0a b8 7f 3b fe 4b 19 bd
       -0.041835792 -0.03320064 0.0039019608 -0.037425987
0000b0 a7 73 79 bd f8 f4 8c be 64 68 ac 3a 5e 45 8f be
       -0.06090131 -0.27530646 0.001315367 -0.2798261
0000c0 b0 fb 8e be a4 7c f1 b9 34 a5 8e be df f1 16 3c
       -0.27926397 -0.00046059967 -0.27860415 0.00921294
0000d0 3f 9e 8f be 75 db 62 3b 2d ba 8f be 12 1e 84 bd
       -0.2805042 0.003461567 -0.28071728 -0.06451048
0000e0 b4 b3 c5 bb 81 33 8e be 56 21 87 bd 98 bc 8e be
       -0.006033385 -0.2777367 -0.06598155 -0.2787826
0000f0 6d 76 05 bd cf 9b ea bc 4c 7a 8e be 85 8e 8d be
       -0.032583643 -0.028638748 -0.2782768 -0.27647796
000100 00 3c 92 be 26 c8 7b bc 42 80 90 be 2a 5c 32 bd
       -0.285614 -0.015367543 -0.28222853 -0.043544926
000110 ef a9 5a bc 8f dd be bb cf 3c 98 bc 7d 18 5c bd
       -0.013346179 -0.0058247517 -0.018583683 -0.05373429
000120 58 b2 8e be de 68 8d be 5c 39 8e be 17 44 8f be
       -0.2787044 -0.2761907 -0.27778137 -0.27981636
000130 46 e3 56 bc 2a 75 8e be 62 76 16 bd 7b f0 0b bd
       -0.01311571 -0.27823764 -0.036733992 -0.034164887
000140 07 c6 42 bc 41 60 00 bd 0e 85 8d be c4 33 21 bd
       -0.011888034 -0.031341795 -0.27640575 -0.03935601
000150 ee 0e 8d be e8 84 8c be a0 cb 13 bd 1a 75 12 bd
       -0.27550453 -0.2744515 -0.036082864 -0.035756208
000160 89 bd 48 3d 53 06 34 bd 15 ad ca bc c5 54 8f be
       0.04900888 -0.043951344 -0.024740735 -0.27994362
000170 69 02 8d be 3d 51 51 bd fb 45 5c bd 02 a8 8d be
       -0.275409 -0.051102865 -0.053777676 -0.27667242
000180 15 c2 c5 bc c9 d7 c5 3c b5 25 8e be 68 8e 03 bd
       -0.024140397 0.024150746 -0.27763143 -0.03211823
000190 b4 2a 8f be 9b 9f 91 be 48 5a 90 be 34 bd b4 3d
       -0.27962267 -0.28442082 -0.2819388 0.0882515
0001a0 48 6c 46 3b 29 40 11 3d 02 cd b9 3d c7 0c 34 bc
       0.0030276943 0.03546158 0.09072305 -0.0109893745
0001b0 fe 0b 42 bd 67 32 8c be da e4 3d bc 20 b6 06 bd
       -0.047374718 -0.27382204 -0.011590207 -0.03288853
0001c0 07 af 55 bd e8 aa 8c be 4a d8 85 bd 56 34 8e be
       -0.052168872 -0.2747414 -0.065353945 -0.27774304
0001d0 4b e6 54 bb cc 26 ea bc 7f 85 8e be 23 01 8e bb
       -0.0032485898 -0.028582953 -0.27836224 -0.0043336316
0001e0 cc 35 4c 3d 6b fc 12 bd 85 9f 97 bc 32 70 8d be
       0.049855992 -0.035885256 -0.018508682 -0.2762466
0001f0 bd ff ee bb 43 3f 90 be e8 08 07 3d 69 4f 0b bd
       -0.00729367 -0.28173265 0.032967478 -0.03401128
000200 77 dd 77 3d c0 da 8c be 1e 74 b6 bd fb 83 8e be
       0.06051394 -0.27510643 -0.08908866 -0.27835068
000210 05 60 8b bb c2 b3 91 be 7b d3 05 bd e4 1d 6d bc
       -0.00425339 -0.28457457 -0.032672387 -0.0144724585
000220 c5 e6 22 3d 8e 6f 1f 3e 8d 56 cf bc cd e4 8e be
       0.03977086 0.15569898 -0.025309825 -0.27908936
000230 a9 a7 0a 3d 5d d1 90 be 98 78 97 bd 88 98 23 bc
       0.0338513 -0.28284732 -0.07396048 -0.009985097
000240 80 6d 8d be 73 0a 34 bc c5 96 cb bb d5 13 29 bd
       -0.27622604 -0.010988819 -0.0062130415 -0.04127868
000250 75 fb 8c be 84 48 8e be a5 01 8e be 10 ae 8d be
       -0.27535596 -0.277897 -0.2773563 -0.27671862
000260 dd 44 09 bc 06 cc f1 bc 8e bc 8d be 0c 80 8c be
       -0.008378235 -0.029516231 -0.27682918 -0.27441442
000270 3b d2 da 3b d9 55 76 3d f7 12 8e be 1f df 8f be
       0.0066778935 0.060140464 -0.27748844 -0.28099915
000280 a2 8f d8 bc 8e 02 42 bd ad 4c 11 bd 14 96 21 bd
       -0.026435677 -0.047365718 -0.035473514 -0.039449766
000290 47 40 8b bc 1f 32 8e be 45 34 10 bd 37 6e 8e be
       -0.016998423 -0.27772614 -0.035206098 -0.27818462
0002a0 f2 f4 fb 3a 4e 82 5b bd 5f 7e 95 bc 4e 5d 8d be
       0.001922278 -0.053591065 -0.018248735 -0.27610248
0002b0 cf 70 96 bc 75 9d 5b bd 4d 6a 8e be 4a c6 1a bd
       -0.018364338 -0.05361696 -0.27815476 -0.03778676
0002c0 c2 e4 8d be f4 2d 05 3d 5c 22 35 bd 32 78 7c bc
       -0.2771359 0.032514527 -0.04422222 -0.015409516
0002d0 89 7d 2e bd ee d4 8d be 18 78 3e bd 4d 35 0d bd
       -0.04260019 -0.27701515 -0.04650125 -0.03447466
0002e0 2f a2 3f 3d 79 62 40 bd db 0d 79 bc 4a 50 26 bd
       0.04678553 -0.04696891 -0.015201057 -0.040603913
0002f0 5b b3 3d bd 4c f3 bd 3c e2 39 8f be 53 dd 91 be
       -0.046313625 0.023187302 -0.2797385 -0.2848917
000300 db 4e 15 bd c8 57 2e bd 37 5c 62 bd 4b 98 88 bd
       -0.036452156 -0.042564183 -0.055263724 -0.066696726
000310 5a f7 04 bd 07 76 8b be 76 7d b6 bb d9 25 82 bc
       -0.032462455 -0.27238485 -0.0055691553 -0.015887188
000320 b9 50 2f bd 2c 90 e1 bc 0d a1 63 ba c9 b1 8e be
       -0.042801592 -0.027534567 -0.0008683361 -0.27870014
000330 56 d2 03 bd 18 32 22 bd 0c bc 8f be ff 2a b6 bb
       -0.032183014 -0.039598554 -0.28073156 -0.0055593248
000340 b2 a4 56 bd 4a fe 92 3c d7 95 21 bd 6c a3 90 be
       -0.05240316 0.01794352 -0.03944954 -0.2824968
000350 5a 3f fc bc c8 fa 8f be 8a 05 8f be d8 a5 8c bd
       -0.030791927 -0.28121018 -0.27933913 -0.0686757
000360 13 7a 34 bd ef 7a 8e be 2a df b0 bc a4 58 0b 3c
       -0.04406173 -0.27828166 -0.021590788 0.00850502
000370 bc 04 8e be f5 d9 85 bd 43 42 5f bd 44 45 8d bd
       -0.27737987 -0.06535713 -0.05450655 -0.06897977
000380 96 eb 6a 3b 51 43 e2 bc 60 6f 66 ba fd 1d 8f be
       0.0035845987 -0.02761999 -0.00087904 -0.27952567
000390 f0 e8 8f be cf 03 58 bd e4 ab 48 3c 14 ea cc bc
       -0.28107405 -0.052738007 0.012248013 -0.02501396
0003a0 d6 b7 8c be 91 35 cf bc dc 0a 8e be 28 62 8f be
       -0.27484006 -0.025294097 -0.2774266 -0.28004575
0003b0 9c 28 8e be 6f b3 5d 3d 1c eb 52 bc fb aa b1 bc
       -0.27765357 0.0541262 -0.012873437 -0.021687975
0003c0 a5 eb 55 bd db f9 8f be 72 8e 91 be 4b 71 61 bd
       -0.05222668 -0.28120312 -0.2842899 -0.055039685
0003d0 e2 fb 8d be d9 64 6c bd da 4a 91 be df fe c2 bb
       -0.27731234 -0.057713363 -0.2837742 -0.005950793
0003e0 a7 1d 36 bd f2 01 58 bd a2 69 8d be 24 7d 90 be
       -0.044461872 -0.05273623 -0.27619654 -0.28220475
0003f0 a1 65 2f bd 24 70 ce 3b d6 4d 54 bd c1 37 91 be
       -0.04282153 0.0062999893 -0.051832043 -0.2836285

sequential/batch_normalization/batchnorm/sub:0 f4 [64]
000000 ce 64 36 3e 10 6a 1e 3f 76 1f 1a 3f 64 59 64 bf
       0.17811891 0.6188059 0.60204256 -0.891989
000010 63 f4 f0 3f f2 81 08 bf 1c 3c 3f 3f 82 a9 5a 3f
       1.8824581 -0.5332328 0.74701095 0.854149
000020 d7 88 dd be 66 43 8c 3f 47 d2 80 3f 24 62 a0 be
       -0.43268463 1.0958068 1.0064172 -0.31324875
000030 6c 23 42 3f ae de 8e be 31 d1 c1 3f d6 09 c5 3e
       0.758353 -0.27904266 1.5141965 0.38484067
000040 88 fb 9d bf 44 bb 7b 3f 13 26 9e 3f 29 f5 0c 40
       -1.2342386 0.9833262 1.2355369 2.2024634
000050 16 96 b0 3f 26 e2 10 bf f6 ca 3f bf ee f1 60 3f
       1.3795803 -0.56595075 -0.7491907 0.87869155
000060 c4 ec 5c 3f 82 66 f6 3e ef 3d 81 bf 06 aa 13 bf
       0.86298776 0.48125082 -1.0097026 -0.5768131
000070 34 77 bf 3f 53 3e 12 3f 44 f2 fd bf 31 01 4e bf
       1.4958253 0.5712635 -1.9839559 -0.8047057
000080 8a 08 65 bf 84 da 83 bf 86 ec 93 3f 2a af 54 bf
       -0.89466155 -1.0301061 1.1556556 -0.8307978
000090 2c 74 01 3f ce fe b1 3f aa a4 13 3f 00 a1 bc 3f
       0.5056789 1.3905885 0.5767313 1.4736633
0000a0 2e 74 c1 bf 21 8b d0 be 70 03 a4 3f d2 53 8d bf
       -1.511358 -0.40731147 1.2813549 -1.1041205
0000b0 c6 df e2 bf 96 ba 60 3f ca f1 00 40 b7 ac 4f 3f
       -1.772454 0.8778471 2.0147576 0.81122917
0000c0 ae 04 3b bf e1 12 0c bf c4 f4 57 bf f8 1b 4c bd
       -0.73054016 -0.54716307 -0.8435786 -0.04983136
0000d0 81 9a d4 bf 66 31 7d bf 49 68 28 bf 34 4d 33 bf
       -1.6609651 -0.989035 -0.65784127 -0.7003968
0000e0 f0 89 85 bf 68 16 8e bf 9a 60 99 bf 90 e6 91 3c
       -1.043272 -1.1100588 -1.1982605 0.017810136
0000f0 73 43 bb 3f 31 35 34 40 53 b5 4b bf 38 7b 32 3f
       1.4629959 2.8157465 -0.79573554 0.69719267

sequential/batch_normalization/batchnorm/mul:0 f4 [64]
000000 33 e6 66 40 4e af 87 40 62 cc 70 40 bc 17 8e 40
       3.6078002 4.2401495 3.7624745 4.4403973
000010 88 ff b4 40 6a 40 92 40 6f ae 7f 40 61 93 8b 40
       5.656193 4.570363 3.9950216 4.3617406
000020 6d c7 80 40 e8 bf 96 40 90 cc 7c 40 ed f8 80 40
       4.024344 4.710926 3.9499855 4.0303864
000030 1e 9f 8f 40 86 4d 66 40 c7 a1 94 40 1c b6 7c 40
       4.4881735 3.5984817 4.644748 3.948615
000040 0c 19 dd 40 1a 90 72 40 6b e1 78 40 94 42 de 40
       6.9093075 3.7900453 3.8887584 6.945627
000050 bf b5 7b 40 c3 d5 6d 40 e2 0c 5d 40 eb b2 78 40
       3.932968 3.716172 3.4539113 3.8859203
000060 bf 66 c8 40 2f fd 9c 40 47 19 aa 40 17 4b 9b 40
       6.2625422 4.905906 5.3155856 4.8529162
000070 a7 67 85 40 ad 6c 97 40 1f bc c2 40 0d 1b 73 40
       4.168903 4.732016 6.085464 3.798526
000080 bd 98 88 40 d6 27 89 40 0e 8c 8b 40 91 ad 97 40
       4.268645 4.286113 4.3608465 4.7399373
000090 25 e1 4f 40 3b 60 b0 40 d3 24 cb 40 cf 6a 8f 40
       3.2481167 5.511747 6.348245 4.481788
0000a0 61 c2 90 40 16 2f 8e 40 d9 25 84 40 63 78 8c 40
       4.523728 4.443248 4.12962 4.3896956
0000b0 22 dc 88 40 c0 b1 8b 40 84 3c 9e 40 b5 55 70 40
       4.2768717 4.365448 4.944887 3.7552311
0000c0 50 32 8b 40 4b 22 6e 40 71 98 8c 40 e9 b2 65 40
       4.3498917 3.720843 4.3936086 3.5890448
0000d0 b0 64 a9 40 45 25 85 40 3f 98 a0 40 6a 44 ad 40
       5.293541 4.1607995 5.0185847 5.4146013
0000e0 36 f9 87 40 03 a6 7b 40 16 db 93 40 4e 22 8f 40
       4.2491713 3.9320076 4.620494 4.4729376
0000f0 71 2b a7 40 95 a5 f1 40 ef a2 87 40 91 03 86 40
       5.224053 7.5514627 4.2386394 4.1879354

W0__27 f4 [1, 256, 32]
000000 70 0e d7 3d d2 21 50 be b4 35 71 3e 2f e8 0c be
       0.105008006 -0.20325401 0.23555642 -0.13760446
000010 5f e4 2d 3e 00 cd a3 bd e7 2a b4 bd 3a ae 17 be
       0.16981648 -0.07998085 -0.087972455 -0.14812556
000020 a6 14 42 3e d6 c9 80 3e 87 ed a3 3e c1 32 76 3e
       0.18953189 0.2515399 0.32017156 0.24042799
000030 b6 80 c2 3d 41 93 98 3e 38 a6 db bd 15 cf a2 bc
       0.09497206 0.29799846 -0.10725063 -0.019874135
000040 10 c9 10 3e 9c 8d 84 39 ae bc 4c 3e d5 25 88 3e
       0.141392 0.0002528251 0.1999385 0.26591364
000050 a8 61 e2 3d 30 84 49 3e 3e d3 33 3e 1e b9 f0 3d
       0.11053783 0.19679332 0.17561051 0.11754058
000060 31 d0 18 3d aa 6f 39 3e 20 28 06 bd 73 78 77 be
       0.03730792 0.18109003 -0.03275311 -0.24167041
000070 88 2a e5 bd 02 5f 0c be 31 80 13 3e 3e d1 1d be
       -0.11189753 -0.13708118 0.1440437 -0.15411851
000080 e8 ba 68 3e 6a 6d a1 bd 69 3c ed 3d 93 20 57 3d
       0.22727549 -0.07882197 0.11583788 0.0525213
000090 e2 aa 96 3d 16 9a ed bc 68 00 31 bd da ef 08 3d
       0.07356812 -0.029004138 -0.043213278 0.033431865
0000a0 58 27 de bd af 62 78 3d 4b 9e 10 3e 41 8b 0f bd
       -0.10847348 0.060640987 0.14122884 -0.035044912
0000b0 fa a9 af 3d 5f 78 e9 bc 32 45 be 3d 21 59 8d bd
       0.08577342 -0.02849978 0.09290542 -0.069017656
0000c0 ed 9b 0e bd 82 e4 4e 3e 52 dc a6 bd 24 56 81 3d
       -0.03481667 0.20204356 -0.081474915 0.06315258
0000d0 c0 99 75 3c 32 58 7c 3e 3c fd a5 3d c0 97 bc 3d
       0.01499027 0.24643019 0.08104941 0.092086315
0000e0 24 ed 7a 3e 14 8b 0c bd 2f 20 cd 3d f9 49 1a be
       0.24504524 -0.034312323 0.10015904 -0.15067281
0000f0 ca ed 79 3d 6e 5f b5 3d 7d 4b 2b be ec 96 46 3e
       0.06101779 0.088560924 -0.16728015 0.1939351
000100 ab 2f e1 3d bd b2 8b 3c 9b 2d 0a bd 89 1f bc 3b
       0.1099542 0.017053002 -0.0337349 0.005741064
000110 70 04 99 bd 3d 5f 4a 3e 73 eb 89 3e 31 ad ab 3a
       -0.074715495 0.19762893 0.26937446 0.001309788
000120 e7 a1 2c be 5c 98 a9 bd 9d 48 38 be eb e4 be bd
       -0.16858636 -0.08281013 -0.1799645 -0.093210064
000130 23 2d 8f 3d bb 06 25 3e f9 51 40 bb b8 ab ae 3d
       0.06991031 0.16115849 -0.0029345735 0.085288465
000140 db 08 bc bc ec b7 70 3e 61 30 00 3e f3 d7 8c 3d
       -0.022953441 0.2350766 0.12518455 0.068771265
000150 67 60 2e be 02 d0 5e 3c 0b 21 b1 bd 73 0e 5d be
       -0.17028962 0.013599398 -0.086488806 -0.21587543
000160 95 84 b9 3c 74 78 e3 3d 30 03 12 3d c8 1c 20 3d
       0.022646228 0.11106959 0.03564757 0.039089948
000170 eb a5 e3 3c 2b 24 17 3e 1f 94 c4 3c bf 76 20 be
       0.027789077 0.1475989 0.02399641 -0.15670298
000180 ef cd 97 bc 0e fc 27 3c df f2 cc bd 8c d6 67 3e
       -0.018530814 0.010252966 -0.100072615 0.22640437
000190 a3 b1 a7 be fe 8b c3 3d f0 ed cf 3d 3c ec 3d be
       -0.32752714 0.09548186 0.10152805 -0.18547148
0001a0 d8 e9 de bd b7 78 c2 be bd 9c 43 be 38 09 7b be
       -0.10884446 -0.37982723 -0.1910276 -0.24515235
0001b0 4b 54 4b 3d 49 fe 02 be 48 1a b9 bc 29 7d 13 be
       0.049640935 -0.12792315 -0.02259554 -0.14403214
0001c0 4d ce 8a 3e ab 24 db 3d 28 ef 62 3e 2e 86 07 3e
       0.2711052 0.10700353 0.22161543 0.13234779
0001d0 2f 45 5b be e6 ae ba bd 98 60 ba bd d6 b8 5d be
       -0.2141311 -0.091153905 -0.09100455 -0.2165254
0001e0 38 c3 38 bb 77 ee 61 3e 24 af ef bc 73 15 b8 3d
       -0.0028192531 0.22063623 -0.029258318 0.08988466
0001f0 82 b7 c2 be a9 51 02 3e 43 90 0b bd 25 56 31 3e
       -0.3803063 0.12726463 -0.034073126 0.17318018
000200 ba f0 21 be d5 83 de 3c ea 48 34 3d f0 9f fe 3d
       -0.15814486 0.027162472 0.04401485 0.124328494
000210 a3 49 73 3d 31 bd 1d bd 90 0d 2b 3e da 97 b8 3b
       0.059396397 -0.038510505 0.16704392 0.0056333365
000220 71 25 8b bd d8 27 ad bc 79 1c 25 3c 99 ba 0b be
       -0.06794251 -0.021137163 0.010077589 -0.136454
000230 b0 af a1 3d d5 6a 54 bc ff ed ec 3d 4f 71 e0 bc
       0.07894838 -0.012964924 0.11568832 -0.02739778
000240 88 9e 8e bd 44 68 e8 3b 77 cc 89 3c 2b 6d 0a 3e
       -0.06963831 0.0070925076 0.01682113 0.13518207
000250 4d d7 a2 bd be 1a ed bd fe eb 44 be bb 74 df 3c
       -0.079512216 -0.11577366 -0.19230649 0.027277341
000260 a4 bb 0c bd 0a 67 21 bd 76 94 77 bd 1f 60 95 3d
       -0.034358636 -0.039404906 -0.060444318 0.07293724
000270 01 05 89 3d 8d 48 3a 3e 17 52 58 be 35 37 45 3e
       0.066904075 0.18191738 -0.21125065 0.19259341
000280 10 22 8d ba 59 29 0f 3d 86 65 a5 bc a5 2f 2f 3e
       -0.0010767598 0.03495154 -0.020190012 0.17108019
000290 34 78 ec bd 68 2e cc 3d 0f 51 7c 3e 96 59 04 3e
       -0.115463644 0.09969789 0.24640296 0.129248
0002a0 87 63 06 be 35 2a 30 be 6b b8 c1 bd 02 fa b6 be
       -0.13123904 -0.172036 -0.09459003 -0.35737616
0002b0 6e 26 c4 3b 5c a1 1b bd 92 d2 c2 3c da 9c 25 bd
       0.0059860265 -0.03799568 0.023782048 -0.04043279
0002c0 0f 6c 1f 3e f5 48 94 bc f4 6f 6e 3d 08 23 00 3d
       0.15568565 -0.018101195 0.058212236 0.03128341
0002d0 f3 d3 27 be 99 aa 34 be 6a e8 70 be 14 5b 00 bc
       -0.16389446 -0.17643203 -0.23526159 -0.007834215
0002e0 12 f8 84 be 92 7c 20 3e 11 f7 c3 3c 2d 35 71 bd
       -0.25970513 0.1567252 0.023921521 -0.058888603
0002f0 e7 cb b2 be cc eb 4c 3e 45 89 cc bd 9e 14 55 bc
       -0.3492119 0.20011824 -0.099871196 -0.013005404
000300 f0 d6 a9 3d 76 82 9d 3d ca 4e 1a be db 33 50 3e
       0.08292949 0.07690899 -0.15069118 0.20332281
000310 2c 35 86 be d9 58 69 bb e9 7e 62 bd c1 58 00 be
       -0.26212442 -0.0035605936 -0.055296812 -0.12533857
000320 19 93 ca bd d4 ec 17 3e 89 a1 96 bd 06 1f 2a bd
       -0.09891338 0.14836437 -0.07355029 -0.041533493
000330 be 17 ce bd 9f b4 af 3d a5 2f a8 3d 00 d1 ef 3d
       -0.10063122 0.085793726 0.082122125 0.117097855
000340 ba f2 f0 3d 25 76 4a 3e a7 e4 c8 3d 31 9b 25 3e
       0.117650464 0.19771631 0.09809237 0.16172482
000350 d1 78 9c bd 21 76 df bd 72 d4 20 3e 69 b2 cd bc
       -0.076402314 -0.10911203 0.15706041 -0.025109487
000360 24 42 ab 3c bd 89 1b 3e 01 0f fc 3d a4 21 60 bd
       0.020905562 0.15189262 0.12307549 -0.054719582
000370 e1 eb 6b be e6 4f 87 3c 97 9a 13 3e 65 ed 92 3d
       -0.230392 0.01651759 0.1441444 0.07174186
000380 c9 40 6f 3e 5d 87 18 be 22 99 b7 bd 8b 70 ee 3c
       0.23364557 -0.14895387 -0.08964755 0.029106399
000390 7d 73 b5 be f5 e8 15 be c0 1c 97 3c 8f 80 3d be
       -0.35439673 -0.14639647 0.018446326 -0.18506072
0003a0 36 a4 fc 3d ed b6 8f 3c cd b6 98 3d 3d da f6 3d
       0.12336008 0.01754328 0.074567415 0.120533444
0003b0 7c 09 96 3d 1e 3f a1 3e 7c 38 98 3d a2 0d f9 3c
       0.07326028 0.31493467 0.074326485 0.030402008
0003c0 0d 67 b4 3e 80 7b 92 bd 07 c1 7e 3d ce 1d fa 3c
       0.35234872 -0.07152462 0.062195804 0.03053179
0003d0 d2 58 75 be fb c3 3b 3e 81 7b 6f bd 37 6a 98 3d
       -0.23959664 0.1833648 -0.058467392 0.07442134
0003e0 66 79 33 3c b1 39 c3 3b 31 b1 02 be bf 4a db bd
       0.010954237 0.005957805 -0.12762906 -0.10707616
0003f0 a1 78 09 bd fa f2 77 be 0a 55 cc bd 17 65 0a be
       -0.033562306 -0.24213782 -0.099771574 -0.13515125

R0__28 f4 [1, 256, 64]
000000 51 5d 91 3e de f6 05 3e 7c a0 25 bd 3f 08 25 3e
       0.28391507 0.13082454 -0.040436253 0.16116427
000010 e4 0f 43 bd 14 fe cf bd 9c 1d 3d 3d 8e 35 04 be
       -0.047622576 -0.101558834 0.046170816 -0.12911054
000020 e7 07 08 3d 34 6a cf bb fa ed 4c bd ee c8 2c bd
       0.03321066 -0.006329799 -0.05003164 -0.04218381
000030 d6 86 e9 bd ba 2a e7 3c a3 09 71 bd dd df e9 bc
       -0.11402671 0.028218616 -0.05884708 -0.02854913
000040 87 9e 39 3e 6e ec 74 be cb 1a 47 be aa af a5 be
       0.1812688 -0.23918316 -0.19443814 -0.32360584
000050 64 b6 a4 3d 26 a8 7e be 27 a3 47 3d c6 cc b7 3d
       0.08042601 -0.24868831 0.04873958 0.08974604
000060 fd 07 38 be 11 cc 14 bc e3 1f 9f 3d a5 08 93 3d
       -0.17971797 -0.009081856 0.07769754 0.07179383
000070 6a 1c 5b bd ad 49 85 3d 5f c8 39 3e 85 91 25 bb
       -0.053493895 0.06508193 0.18142842 -0.0025263738
000080 41 38 c8 3c fd a0 3a 3c 47 e7 69 be be fe 15 3d
       0.024440886 0.011390922 -0.22842132 0.036619894
000090 d5 97 44 bd 43 8f d0 bd 13 6b 1f be ad c7 90 be
       -0.04799636 -0.10183575 -0.1556819 -0.2827734
0000a0 ef 6b e9 3c dc 0f 1e 3e b3 3a 33 be 5f af 90 3e
       0.02849385 0.15435737 -0.1750286 0.28258798
0000b0 cf e1 af 3c 24 a1 ee bc c6 c9 08 bd d9 07 94 bd
       0.021469979 -0.029129572 -0.03339555 -0.07228059
0000c0 90 8d 66 3e 96 2d fe bc a9 a9 09 3e fe f1 11 bd
       0.2251494 -0.031027596 0.13443626 -0.035631172
0000d0 67 ba 02 3e 8d 5a b9 3d c6 48 82 3e 59 f2 c9 3d
       0.1276642 0.09050474 0.25446147 0.09860677
0000e0 01 4a 0f 3e cd 31 05 3e f4 8a 46 3d 84 92 01 be
       0.13993074 0.13007279 0.04847236 -0.12653548
0000f0 79 aa 81 bc e6 bb c5 be 5b 70 e5 3c 3a 46 55 bd
       -0.015828358 -0.38619918 0.028007677 -0.052068926
000100 de 4e 3f 3e d4 43 ac 3b 75 3f 6a 3c a1 49 3b be
       0.18682429 0.005257109 0.014297356 -0.18289806
000110 05 00 22 3d 28 be e2 bc aa 8d a1 3d 85 f8 d7 3d
       0.0395508 -0.027678564 0.078883484 0.10545448
000120 94 9a e9 3d c6 84 a0 3d a7 28 05 bc 73 fa 02 bd
       0.114064366 0.078378245 -0.008127368 -0.03197713
000130 f5 81 29 bc ae d2 c5 bd 42 dc 51 bd 4f 0a 92 3c
       -0.010345926 -0.096593246 -0.051235445 0.017827181
000140 a1 e4 4e 3d b0 88 be bd 64 11 b5 bd cc d0 ad bd
       0.050511006 -0.09303415 -0.088412076 -0.084870905
000150 ea 65 26 3d cc 0e 3b 3e b5 d8 8e 3d 71 ba c6 3d
       0.040624537 0.18267363 0.06974927 0.097035296
000160 9d 7f 2f be bf 72 19 bd d2 a0 54 3d c6 68 14 bd
       -0.17138524 -0.037462946 0.051911183 -0.036232732
000170 7d ac d7 3d bc 35 4d 3d cc d4 94 3d 86 55 f8 bd
       0.105309464 0.050100073 0.0726715 -0.12125687
000180 c2 8e 2d bd 23 57 a0 bc 9a 4b 4b bd d2 2d 37 3e
       -0.042372473 -0.0195728 -0.049632646 0.17888573
000190 dc 9d b2 3d 96 b8 47 bd 65 65 c0 bd df 19 45 bc
       0.087215155 -0.04876002 -0.093943395 -0.012030094
0001a0 73 fd 06 bb 64 53 b6 bd 93 11 f0 bb e5 c5 3b be
       -0.0020597845 -0.08902624 -0.0073263138 -0.1833721
0001b0 09 1a 19 3d 6e 07 8b 3d 18 dc 02 3c 47 d1 01 be
       0.037378345 0.067885265 0.007987045 -0.12677489
0001c0 73 b1 06 be 97 dc f6 ba 11 5f 19 3d 47 91 1e 3d
       -0.13153629 -0.0018834051 0.037444178 0.038712766
0001d0 71 76 f1 3d 52 6d 20 bd d1 ab 96 bd 84 dc c3 3c
       0.11790169 -0.039166756 -0.0735699 0.023908861
0001e0 e0 dd 94 3d c6 79 66 bd a4 2f 90 3d e0 0c dc bd
       0.07268882 -0.056268476 0.07040337 -0.10744643
0001f0 11 af 0a be 29 e5 1e be bc d1 35 3d d7 f9 80 3c
       -0.13543345 -0.15517105 0.04438947 0.015744133
000200 81 20 47 3e 9b e9 ad 3e 1b f8 62 be 5c 75 17 3e
       0.19445993 0.3396729 -0.22164957 0.14790863
000210 c8 c5 00 bd 7e 31 97 be 23 74 50 bd 94 6d a7 3d
       -0.03143862 -0.29529947 -0.050892007 0.08175197
000220 31 de c9 3c 2a 54 84 3b b2 77 81 3d ef 24 3d 3d
       0.024642082 0.0040383535 0.06321658 0.0461778
000230 f4 38 d5 bd 1f 4f f5 bc 4e 6e f4 bd c2 d8 d3 bd
       -0.104112536 -0.029944954 -0.119351014 -0.10344078
000240 99 ea a6 3d fb ad d8 be 11 a1 9e be b6 d9 d7 bd
       0.08150215 -0.42320237 -0.3098226 -0.10539572
000250 51 d6 8f bd fe 14 7d be a2 df 78 be 9e 2e 66 3d
       -0.070232995 -0.24715039 -0.24304059 0.0561968
000260 ac d5 0a be 8c ff d6 bd 5b fb a2 3d f0 02 0c 3e
       -0.13558072 -0.104979604 0.079580985 0.13672996
000270 bc 1e 8b bd 2a 71 b9 bd 20 d5 51 3e a8 37 2d 3e
       -0.067929715 -0.090547875 0.20491457 0.16915762
000280 ac b7 4c 3e be 6b 09 be 2c 9b 06 3d 81 4c dd 3c
       0.1999194 -0.13420007 0.032862827 0.027014019
000290 44 05 77 3e ad 9d 5a bd 03 a5 2b 3e 71 d9 30 be
       0.24123102 -0.053373028 0.16762166 -0.17270447
0002a0 07 d6 4f 3e d2 76 80 3e 0d f5 dd bd 7a 9c 9c bc
       0.20296489 0.25090653 -0.10837755 -0.019117583
0002b0 10 3e 49 bd d1 ca c4 3d 66 82 23 be 1c ac 18 3e
       -0.049131453 0.09608997 -0.15967712 0.14909405
0002c0 04 db a9 3e a9 d0 b7 3d 77 a2 ac 3d cc cc 9f bc
       0.33174908 0.08975346 0.08429425 -0.019506834
0002d0 f6 9f 54 3d 01 7a f2 bb 7c ee 8a bd c1 7c c8 bd
       0.051910363 -0.007399798 -0.067837685 -0.0978942
0002e0 30 9f 74 bd 81 07 f3 3d 17 61 e0 3d d8 d9 6c be
       -0.059722126 0.11866666 0.109560184 -0.23129976
0002f0 d0 29 52 be c5 79 c2 bd f0 a4 dd bd cd 4a 0b bd
       -0.20523763 -0.09495882 -0.10822475 -0.034006882
000300 a3 7e 24 3e 3c 93 34 3e 7a 0c 9f be d2 0e 82 3e
       0.16063933 0.1763429 -0.31064206 0.25401932
000310 52 ff 53 bd 76 c1 68 be be 71 25 3d de 3d 21 3d
       -0.051757164 -0.2273005 0.040391676 0.03936564
000320 2a 82 2a 3e 10 f8 a5 3d 39 47 e7 3d 44 97 62 3c
       0.16651216 0.08103955 0.112928815 0.01383001
000330 c7 d1 61 3d 5b 2e 01 be 4c 50 2d be 91 35 6c bd
       0.0551317 -0.1261534 -0.16925162 -0.057668272
000340 68 34 2a 3e 56 9c be be 9b c8 3b be 5d c9 75 be
       0.16621554 -0.3722865 -0.18338244 -0.24002595
000350 fb f6 1c bd 23 15 23 be 94 61 a9 3d 42 d4 48 3d
       -0.038321476 -0.15926032 0.08270565 0.04903055
000360 db 0e 2f be 48 d3 cd 3d 65 4a 8b 3d 72 c0 cb 3d
       -0.1709551 0.10050064 0.06801299 0.099488154
000370 90 1e ea bd 36 e9 90 3b 08 99 e5 3d 58 68 a0 3c
       -0.114316106 0.004422332 0.11210829 0.019581005
000380 8c fd 36 3d 7c 3c a5 3c fc 52 7e bd 77 c9 e8 bd
       0.044675395 0.020170443 -0.06209086 -0.11366551
000390 69 d9 25 3e a1 10 66 bd 0f be f9 3d 1b 22 fe bd
       0.16196217 -0.056168202 0.12194454 -0.12408849
0003a0 e5 4f 3a 3e e4 0f 74 3e b9 2a 0e bd 5c 52 03 3e
       0.1819454 0.23834187 -0.034708712 0.12824386
0003b0 3b d0 86 3e 76 40 30 be ff 5a 95 bd e0 08 2b be
       0.26330742 -0.1721209 -0.07292747 -0.16702604
0003c0 bf 13 4a 3e 1a 0b 4c 3d d2 f7 46 3d c4 c4 9a 3e
       0.19734095 0.049815275 0.048576184 0.30228245
0003d0 1d fa 4d 3e 0a 59 1f 3e 27 fe c3 3d ea 68 05 3d
       0.20114942 0.1556131 0.0956996 0.032570757
0003e0 67 28 86 3d 19 2d 0f 3e f0 c2 99 bc c0 e2 b3 be
       0.06550675 0.13982047 -0.018769711 -0.35133934
0003f0 8c 3e eb bd 03 a4 f8 bd b6 1f af 3d 5b 35 15 bd
       -0.11486539 -0.12140658 0.0855097 -0.036427837

B0__29 f4 [1, 512]
000000 65 ed 80 3e 02 8b 4e 3e b2 f5 51 3e 78 df b3 3d
       0.25181118 0.20170215 0.20503882 0.08782858
000010 70 2d cd 3c e1 30 41 3e 3a 30 07 3e fa a9 80 3d
       0.02504608 0.18866302 0.1320199 0.062824205
000020 01 f8 ec 3d 94 c5 b5 3c 4c 8d 28 3e f7 dc 9e 3d
       0.115707405 0.02218894 0.1646015 0.077569894
000030 0f 94 01 3e d9 5f 4c 3e 61 3c d9 3d d8 6e 0d 3e
       0.12654136 0.19958438 0.106072195 0.13811815
000040 19 31 1b 3e 3c 67 63 3e b6 63 4a 3e 6c eb ea 3d
       0.15155448 0.2220735 0.19764599 0.114706844
000050 cd 65 2e 3e 9e 9a 32 3e b4 3c 61 3e 7f b1 bd 3d
       0.17031021 0.17441794 0.21995813 0.0926237
000060 de 1c 07 3e f4 43 b7 3d 4f 90 c0 3d df f5 51 3d
       0.13194606 0.08948508 0.09402525 0.05125987
000070 5f 80 67 3d 7b f5 61 3e 94 50 53 3e c4 04 ff 3d
       0.05651891 0.220663 0.20636207 0.12452081
000080 c0 2c fb 3d 14 3b 9e 3d a1 13 dc 3d 52 09 5e 3e
       0.12264395 0.07726112 0.107459314 0.21683243
000090 2b 47 38 3e 8d 78 2f 3d 24 b6 15 3e 47 9a 36 3e
       0.17995898 0.042839576 0.14620262 0.1783229
0000a0 6c 52 ec 3d 4c 66 15 3e 81 8b bd 3d 7a 0c de 3d
       0.11539158 0.14589804 0.09255124 0.108422235
0000b0 bb bc de 3d 2b ae 22 3e 1e b6 a7 3d ec f0 36 3e
       0.10875841 0.15886752 0.08189033 0.17865342
0000c0 17 85 2a 3e c6 7e 62 3e 1d aa 14 3e 24 42 b4 3e
       0.16652332 0.22118673 0.14518018 0.3520671
0000d0 1a e0 5e 3d 21 84 23 3e 9f 3e c5 3d d8 06 00 3e
       0.05441294 0.15968372 0.09631085 0.1250261
0000e0 cc d8 38 3e 70 4c 8d 3e 5f ea f4 3d 22 74 19 3e
       0.18051451 0.2759738 0.11958765 0.14985707
0000f0 ad 73 85 3d 02 60 2d 3e 57 ca 30 3e 49 f2 13 3e
       0.06516204 0.16931155 0.17264687 0.14447893
000100 c4 f3 54 3e dc 2b 43 3e 40 07 3a 3e 6f 4e c1 3d
       0.20796114 0.190597 0.18166828 0.09438788
000110 b9 be fb 3c ca 2b 17 3e b5 96 f5 3d 6d 99 0c 3d
       0.030730592 0.14762798 0.11991636 0.034326006
000120 14 ad 8d 3d 1c 01 83 3c a8 36 0f 3e bd 58 53 3d
       0.06917778 0.01599174 0.13985693 0.0515983
000130 65 7a e6 3d a4 eb 26 3e f4 41 c9 3d b3 89 cb 3d
       0.11253814 0.16300827 0.09827033 0.099383734
000140 8f 35 16 3e 0f 04 53 3e cd 31 48 3e 94 35 2d 3e
       0.14668868 0.20607017 0.19550247 0.1691497
000150 34 f1 37 3e 7e bf 30 3e 8c 01 1e 3e 28 e8 97 3d
       0.17963105 0.17260548 0.15430278 0.07417327
000160 f6 57 1c 3e 60 2b 6c 3d 89 d6 a7 3d 71 cf 22 3d
       0.1526793 0.057658553 0.08195216 0.039748613
000170 e5 97 46 3d 60 ff 3a 3e b7 19 69 3e d8 a2 e5 3d
       0.0484847 0.1826148 0.22763716 0.112127006
000180 53 84 ef 3d 03 eb 8a 3d 37 b0 d2 3d 47 02 60 3e
       0.11695161 0.06783106 0.102875166 0.21875869
000190 a7 95 26 3e 92 b4 2e 3d 27 c8 15 3e 00 9d f6 3d
       0.16268025 0.042652674 0.14627133 0.12041664
0001a0 b1 72 ed 3d 92 2b ed 3d b7 fb 8f 3d ce 7d af 3d
       0.11594141 0.11580576 0.07030433 0.08568917
0001b0 d8 e7 d7 3d d8 db 18 3e fb 4d d4 3d 6b 1f fc 3d
       0.105422676 0.14927614 0.10366436 0.1231068
0001c0 09 04 26 3e 7a c8 49 3e 8f cc ee 3d 12 3b 8f 3e
       0.16212477 0.19705382 0.1166011 0.27974755
0001d0 63 77 2a 3d 50 a0 1e 3e 26 c6 b1 3d a6 5f b8 3d
       0.041617762 0.15490842 0.08680372 0.090026185
0001e0 ec 59 0c 3e 7d 42 72 3e f0 c4 01 3e 25 b4 f4 3d
       0.13706177 0.23658176 0.12672782 0.11948422
0001f0 22 6c 9d 3c 85 28 7b 3e ee 39 00 3e 49 09 f0 3d
       0.0192166 0.24527176 0.12522098 0.11720521
000200 e8 0d a1 3f 7c 51 a0 3f 75 95 a3 3f c3 6f 8a 3f
       1.2582369 1.2524867 1.2779986 1.0815357
000210 3d ec 82 3f a7 c4 9b 3f 14 74 95 3f 19 05 86 3f
       1.0228344 1.2169389 1.1676049 1.0470306
000220 71 de 8c 3f ce db 7e 3f 1a e3 8e 3f f0 79 8a 3f
       1.1005384 0.99554145 1.1163056 1.0818462
000230 f0 7a 8e 3f 72 de 90 3f 91 fc 8e 3f 8f e1 96 3f
       1.1131268 1.1317885 1.1170827 1.1787585
000240 e6 ab 91 3f d5 79 a1 3f f9 35 95 3f 53 4a 8c 3f
       1.1380584 1.2615305 1.1657096 1.0960182
000250 5e 84 9a 3f bc 2e 99 3f 66 a4 9c 3f 63 02 85 3f
       1.2071645 1.1967387 1.223767 1.0391353
000260 61 08 8b 3f 48 1b 8a 3f 33 81 8d 3f eb f7 84 3f
       1.0861932 1.0789576 1.1055053 1.0388159
000270 76 84 84 3f b9 7f 93 3f 2e 32 a2 3f 7d 73 90 3f
       1.0352924 1.1523353 1.2671564 1.1285244
000280 c2 dc 90 3f 4c 6d 8b 3f 26 8b 8f 3f 4c 78 8b 3f
       1.131737 1.089273 1.121434 1.0896087
000290 9a d5 94 3f 54 7f 8f 3f 05 bd 98 3f 47 47 8b 3f
       1.1627686 1.1210732 1.1932684 1.0881127
0002a0 ad d8 8d 3f cd 39 92 3f 7f d2 86 3f 54 56 8c 3f
       1.1081749 1.1423889 1.0532988 1.0963845
0002b0 fc 64 92 3f cf 9c 95 3f 69 09 8c 3f 2b b2 8f 3f
       1.1437068 1.1688479 1.0940372 1.1226248
0002c0 57 e3 99 3f b9 81 9d 3f 1e b2 95 3f ca f6 96 3f
       1.2022504 1.2305213 1.1694982 1.1794064
0002d0 7d 57 86 3f 11 aa 90 3f 37 82 8e 3f 58 23 88 3f
       1.0495449 1.13019 1.1133488 1.0635786
0002e0 a4 75 94 3f 09 d5 a1 3f 7d 33 99 3f e1 d5 93 3f
       1.1598401 1.2643138 1.1968838 1.1549646
0002f0 88 c2 85 3f 52 aa 8f 3f ab c3 93 3f 3a 17 96 3f
       1.0449991 1.1223853 1.1544088 1.1725838
000300 75 71 66 3d 0b 22 72 3d 40 5d 5f ba b5 b9 6a bc
       0.056260545 0.059114497 -0.000852067 -0.014326503
000310 38 5e 87 3c 65 0b 70 bc ce 72 d7 3c 3b f3 56 3d
       0.01652442 -0.014651154 0.02629986 0.052478056
000320 d6 7f 76 3d c8 0d f3 3c 4b 80 09 3c 74 a0 16 bd
       0.060180508 0.029669657 0.008392404 -0.036774114
000330 21 0d 87 3b 68 67 34 bd 63 04 d9 3c 50 51 31 3d
       0.004121438 -0.04404393 0.02649135 0.043290436
000340 bb 89 7b bc 9c f2 a9 bd 78 e7 8e bc 0f 14 0c bd
       -0.015352662 -0.08298227 -0.017444357 -0.034198817
000350 64 8b 43 3d 5b 9e b8 3c e9 91 4a bd a0 aa 77 3d
       0.047740355 0.022536447 -0.049455557 0.060465455
000360 b6 93 0a bc 82 11 23 bb 21 40 ad bc 4a b0 59 bd
       -0.008458069 -0.0024882262 -0.021148743 -0.053146638
000370 c5 a7 5b 3d ee f0 dd 3b 0f bd c8 3b 19 2a 73 3c
       0.053626794 0.006773106 0.006126053 0.01484158
000380 db 7e 32 bd df e8 5b bc 5a 24 73 bb 06 ab 58 3d
       -0.04357801 -0.01342222 -0.0037100525 0.052897476
000390 08 7f 02 3d 27 10 85 3c ea e0 0e bd 02 34 bd 3c
       0.031859428 0.016243054 -0.034882464 0.023096088
0003a0 b6 7f 7d bb 55 74 6d bb 18 30 9b 3c 86 b1 b3 bc
       -0.0038680858 -0.003623267 0.018943831 -0.021935236
0003b0 a7 a4 08 3c 1a 39 11 3d da 2e d2 ba a6 a2 be 3c
       0.008340037 0.035454847 -0.0016035691 0.023270916
0003c0 3a a0 df 3c 0f f6 2e bd 0c 0b f9 3c 0b 4b 26 bc
       0.027298082 -0.04271513 0.030400775 -0.010149728
0003d0 1b 96 05 3c 55 d1 2a bd 4c d7 cc bb ec 62 45 bc
       0.008153464 -0.04170354 -0.0062512513 -0.012047511
0003e0 49 34 a9 bb 02 49 89 bc df 4c be bc 2d a7 15 bc
       -0.0051637036 -0.016758446 -0.023230014 -0.009134096
0003f0 af 0c 1f 3c 35 75 68 bd f0 f0 f3 bb 06 18 97 3d
       0.009707614 -0.056752402 -0.0074444935 0.07377629
